simple NN/initial_model_weights.pth (torch, 4527 bytes, 10 tensors)

fc1.weight f4 [8, 9]
000000 c0 c1 1b be 9a 4f 5c 3e 70 8b cd 3d 38 8d 5c bd
       -0.15210629 0.2151474 0.10036361 -0.053845614
000010 00 55 73 bc e9 28 96 3e 58 80 24 3e bf 48 85 3e
       -0.014851809 0.29328087 0.16064584 0.26032063
000020 a2 8d 5d 3e 82 61 1b 3e 1e d1 40 be df b2 97 3e
       0.2163606 0.15173915 -0.18829772 0.29628655
000030 1c dd 84 3d 96 70 6d be d0 1e 80 3d 1d 7e 86 3e
       0.06487486 -0.2318748 0.06255877 0.26268092
000040 a6 4d 2c be 08 fb 2e be 00 d5 4a 3d 5e af 94 be
       -0.16826496 -0.17087948 0.04951954 -0.29040045
000050 da f6 5e 3e 64 09 e1 3d 3b 2b a3 be 43 a0 88 be
       0.21773854 0.10988119 -0.3186892 -0.2668477
000060 20 7d 67 be 20 1b 25 3d 85 14 a5 3e 80 f4 6a 3d
       -0.22606325 0.04030907 0.32242218 0.05736208
000070 95 bf 81 3e 9f d2 9e be fb b9 15 be a9 4d 8b 3e
       0.25341478 -0.31020066 -0.14621727 0.27207687
000080 6a a7 5d 3e d3 6a 30 be 18 6f 05 be 00 3d 91 bb
       0.21645895 -0.1722825 -0.1303066 -0.0044323206
000090 3b d6 9b 3e 2d 0f 84 3e 78 a7 03 3e f6 29 28 3e
       0.30436882 0.25792828 0.12856853 0.16422257
0000a0 4c 53 f5 3d 72 99 7b 3e 10 04 f6 bd ea d6 5a 3e
       0.11978778 0.24570253 -0.120124936 0.21371046
0000b0 f2 09 5c 3e 92 e6 3c 3e 16 f8 da bd b9 67 a2 3e
       0.21488169 0.1844733 -0.1069185 0.3171976
0000c0 a7 fc 83 3e 4a 9e 36 3e 00 88 c8 ba d7 c2 9d 3e
       0.25778696 0.1783382 -0.001529932 0.30812714
0000d0 00 27 cd 3c 58 b1 70 be 2b 17 0b be c8 3c 40 bd
       0.02504301 -0.23505151 -0.13583057 -0.046932966
0000e0 00 ad 6d 3d de fd 03 3e a0 d7 22 3d eb 64 55 be
       0.058026314 0.12889811 0.039756417 -0.20839278
0000f0 2f 15 99 be fb 1d 98 be 80 c1 3a 3d f0 ad b1 bc
       -0.29898974 -0.29710373 0.045594692 -0.021689385
000100 b6 da 03 3e 08 85 42 bd 10 40 f3 bd 80 65 15 3e
       0.128764 -0.04749015 -0.11877453 0.145895
000110 b4 a6 81 be 20 95 25 bc d7 b6 85 3e 78 da 6a bd
       -0.25322497 -0.010106355 0.26116058 -0.057337254

fc1.bias f4 [8]
000000 20 7d 29 3c 76 18 db bd 9b 66 a3 3e 7e b0 50 3e
       0.0103447735 -0.10698025 0.3191422 0.20379826
000010 3d 1a 98 3e 00 e0 6d 39 98 f4 1e 3d ba a9 32 3e
       0.29707518 0.00022685528 0.03880748 0.17447558

fc2.weight f4 [8, 8]
000000 c0 e8 e2 3d d1 74 0f be b2 2c 2f 3e 2e 71 02 3e
       0.1107955 -0.14009406 0.17106894 0.12738487
000010 97 ae b2 3e d0 61 f9 3d 52 81 45 3e 98 47 54 3d
       0.34898826 0.121768594 0.19287613 0.05182609
000020 00 5c bf bc 58 61 6c be b8 fe fc bd ff f7 3f be
       -0.023359299 -0.23084009 -0.12353271 -0.18746947
000030 0d 5c 49 be 30 3a b9 bd 7b 49 2d be f8 d7 bb bd
       -0.19664021 -0.090443015 -0.16922562 -0.09172052
000040 14 ba 44 be c9 a7 30 be d4 b6 88 3d 97 6d 99 3e
       -0.19211608 -0.17251505 0.06675497 0.29966423
000050 bc cb 87 be 50 0c ea 3c 74 7c d2 3d 5a 3c 23 3e
       -0.26522624 0.028570324 0.10277644 0.15940991
000060 6d 2c 76 be 80 ad c8 bc 98 92 59 3d 30 12 27 3d
       -0.24040385 -0.024496794 0.05311832 0.04078883
000070 10 46 65 3d 08 e3 af 3d 8f 40 00 be e2 41 27 3e
       0.05597502 0.08588225 -0.12524627 0.16333726
000080 00 48 fe ba 7e e7 1f be 85 79 66 be b1 68 03 be
       -0.001940012 -0.15615651 -0.22507294 -0.12832905
000090 49 83 8e 3e f8 62 f8 3d 58 c1 08 3d 40 69 8b 3c
       0.27834538 0.12128252 0.033387512 0.01701796
0000a0 0e d5 72 3e 8e 34 6b 3e 90 49 d1 bd b5 27 5b be
       0.23714086 0.22969267 -0.10219109 -0.21401866
0000b0 24 5b 96 3d d7 01 8a be 15 02 8b be 5b 52 82 3e
       0.073416024 -0.2695453 -0.27150026 0.25453457
0000c0 92 06 85 be 06 1b 59 be 0a 51 a2 be 12 39 75 be
       -0.25981575 -0.21201715 -0.31702453 -0.23947552
0000d0 6d 89 a4 3e 3e 31 60 3e 10 fc 65 3d 21 da ae be
       0.32136098 0.21893784 0.05614859 -0.34150794
0000e0 83 e1 a0 be 6f 1b a6 3e a7 85 a3 3e 4a 3f 4d 3e
       -0.31422052 0.32442805 0.31937906 0.20043674
0000f0 f7 01 88 3e 0e d0 2e 3e bd 4f a7 be ee 87 15 3e
       0.26564 0.17071554 -0.32678023 0.14602634

fc2.bias f4 [8]
000000 90 be f6 3d 27 11 a6 be ec 1b 84 3d df e4 aa be
       0.12048066 -0.3243496 0.06450638 -0.3337774
000010 80 b6 cd bc 00 7e 7e 3b 1a 20 86 be e8 ed 4d bd
       -0.025111437 0.0038832426 -0.26196367 -0.050275713

fc3.weight f4 [8, 8]
000000 62 00 50 3e fd 70 51 be 60 65 87 bc 01 1d 95 be
       0.20312646 -0.20453258 -0.016527832 -0.2912369
000010 7d d9 29 be 19 ce 48 be ac 0d 14 3e e0 9e 73 bc
       -0.16586871 -0.1960987 0.1445834 -0.014869422
000020 90 b1 b8 bc 00 72 9b 3c f0 0b b0 3d e2 36 1e 3e
       -0.022545606 0.018975258 0.08596027 0.15450624
000030 aa 62 2e 3e 55 23 aa 3e 7c ca c5 3d 8c 17 0f 3e
       0.17029825 0.3323008 0.096577615 0.13973826
000040 a8 d7 70 bd 5b c2 37 be 6f d9 99 be 79 ea 8c 3e
       -0.058799416 -0.17945234 -0.300487 0.27522638
000050 85 6e 50 be e8 3b 0d 3e cf 89 81 3e 20 94 68 3c
       -0.2035466 0.13792384 0.25300452 0.014195472
000060 9b 59 43 be fb a0 86 3e 53 63 b2 be 90 f9 c7 bc
       -0.1907715 0.26294693 -0.34841403 -0.024410993
000070 40 9f 3e 3d 7e 5d af be ea 75 7f 3e a6 02 1c 3e
       0.04653859 -0.34251016 0.24947324 0.15235385
000080 d8 9b fe 3d 90 95 bc bc ee 10 08 3e e8 8f 40 bd
       0.124320686 -0.023020536 0.13287708 -0.04701224
000090 b2 90 16 3e 78 83 66 3d 65 25 9e 3e 90 d6 b9 bc
       0.14703634 0.056277722 0.30887905 -0.02268532
0000a0 1c 1e d9 bd 40 78 f0 bc c8 3f 3e bd 8a 71 57 3e
       -0.10601446 -0.029354215 -0.046447545 0.21039405
0000b0 d7 02 92 be 78 24 01 bd b0 2d 81 3d 85 8f 87 be
       -0.28517792 -0.03152892 0.06307542 -0.26476684
0000c0 a0 fe 02 bd 10 1c 93 bd a6 48 7d 3e fb 94 45 be
       -0.03198111 -0.07183087 0.24734744 -0.19295113
0000d0 f0 6a 8d 3d 4a 9c 98 be 48 81 50 bd be b7 2d 3e
       0.06905162 -0.2980674 -0.050904542 0.16964623
0000e0 72 d0 57 3e d8 2e 87 bd eb a5 9c 3e e6 54 00 be
       0.2107561 -0.066007316 0.30595335 -0.12532386
0000f0 7c 97 ae bd 5a d5 04 be 7d 44 a0 be 62 65 a1 be
       -0.08524987 -0.12972012 -0.31302252 -0.3152266

fc3.bias f4 [8]
000000 e0 0f 96 3d a8 a1 0c 3e 81 33 21 be 8e 01 2b 3e
       0.07327247 0.13733542 -0.15742303 0.16699812
000010 cc fb 8e bd 2c 8d b1 3d 59 59 5d be b0 29 9f bc
       -0.0698162 0.086695045 -0.21616115 -0.019429058

fc4.weight f4 [8, 8]
000000 c6 af 19 be 18 eb 0a be 58 a8 71 bd 9d be 9e 3e
       -0.15008458 -0.13566244 -0.058998436 0.310048
000010 26 47 2c 3e 93 4e 59 be 55 05 10 be fc 6a 87 bd
       0.16824016 -0.2122138 -0.14064534 -0.066122025
000020 94 7a b0 3d c6 52 27 3e 50 e0 ad bc 90 f7 9d be
       0.0861713 0.1634017 -0.021225125 -0.30852938
000030 b6 03 32 3e 0c f6 ca 3d 88 7c c6 bd e0 44 3c 3d
       0.17384228 0.09910211 -0.09691721 0.04596412
000040 c4 ed 81 3d 30 ae a8 bc c7 91 94 be 05 8b 68 be
       0.06344178 -0.020590872 -0.2901747 -0.22709282
000050 81 fe 86 3e 6c 8f de 3d e2 3d 4e be 6d 1b 98 3e
       0.26366046 0.10867199 -0.20140794 0.29708424
000060 94 04 30 be 90 ac 4b bd 5e bb 6a 3e 33 78 b2 3e
       -0.17189246 -0.049725115 0.22923037 0.3485733
000070 50 e7 2f bd 3c 09 70 be bc 0b a8 be 7c 49 52 be
       -0.042945206 -0.23441023 -0.32821453 -0.20535845
000080 30 8e e4 3d e6 2f 7a 3e 06 3b 13 be d1 60 1e be
       0.111599326 0.24432334 -0.14377984 -0.1546662
000090 7e 50 b0 be 6a 6a 5b 3e 07 f2 9f be 49 77 8b 3e
       -0.3443641 0.21427312 -0.3123934 0.27239445
0000a0 94 af a8 3d 2b e8 87 3e c1 37 85 3e ac c1 84 3d
       0.08236614 0.26544318 0.260191 0.064822525
0000b0 c9 a7 8f 3e f8 1a d8 3d c8 d0 93 3d 8a ba e0 bd
       0.28057697 0.10552019 0.07217556 -0.109730795
0000c0 d6 cc 05 be b0 85 b4 bc d6 26 1e be 3b 98 ab 3e
       -0.1306642 -0.022036403 -0.15444502 0.3351458
0000d0 40 54 f5 3c ef 80 3c be 16 10 4f 3e 00 a0 df bc
       0.0299474 -0.1840856 0.2022098 -0.027297974
0000e0 cf 3b 87 3e 0b 63 19 be 30 dd 45 bd 7f 1f 88 3e
       0.26412818 -0.14979188 -0.048306644 0.2658653
0000f0 5a 11 48 3e b5 88 86 be 5c 08 9a be c3 e5 82 be
       0.19537869 -0.26276174 -0.30084503 -0.2556592

fc4.bias f4 [8]
000000 30 65 07 bd 25 5f 8c 3e 98 25 8c be 0c 04 94 bd
       -0.033055484 0.2741634 -0.27372432 -0.072273344
000010 f9 30 a4 3e e6 a9 7a 3e 66 2c 2a 3e 54 9b a6 bd
       0.32068613 0.24478874 0.16618499 -0.08135095

fc5.weight f4 [4, 8]
000000 ea 2e 95 be 58 ac fe 3d 88 27 4b bd e4 b7 b9 3d
       -0.29137355 0.12435216 -0.049598247 0.090682775
000010 ee 06 25 3e 1d 34 83 3e 2d aa b4 3e be 4f 9c be
       0.16115925 0.25625697 0.35286084 -0.30529588
000020 7a 9d 2d 3e 96 bb 5b 3e c8 64 c2 3d 70 7e 23 3d
       0.16954604 0.21458277 0.09491879 0.039915502
000030 be 79 55 be 8c 5d ba 3d 2c 10 c3 3d ee 94 66 3e
       -0.20847222 0.09099874 0.09524569 0.2251775
000040 d2 6c 75 be 60 89 55 be da 08 75 3e 4c 21 6a be
       -0.23967293 -0.20853186 0.23929158 -0.22864264
000050 c3 cf 87 3e f2 e3 42 3e 20 ba 5b bc a0 54 2a bd
       0.26525697 0.19032267 -0.013411075 -0.04158461
000060 58 19 76 bd 92 4f 0d be 02 ed 42 3e a2 4a 55 3e
       -0.060082763 -0.13799885 0.19035724 0.20829251
000070 1d d8 84 be 80 95 08 bd b0 31 f5 bd 4a 9f 11 3e
       -0.2594613 -0.0333457 -0.11972368 0.1422092

fc5.bias f4 [4]
000000 14 49 67 be c0 3b f6 bc ef 1d a5 3e 6f 77 98 3e
       -0.22586471 -0.030057788 0.322494 0.2977862
