simple NN/initial_model_weights.pth (torch, 4527 bytes, 10 tensors)

fc1.weight f4 [8, 9]
0	0x3ce5a7f0	0.02803418
1	0x3df284ec	0.11841759
2	0xbe85a07f	-0.2609901
3	0x3e6e6d6a	0.23283926
4	0xbd977b5c	-0.07396576
5	0xbe863c5e	-0.26217932
6	0xbdca291c	-0.09871122
7	0x3dd9ef1c	0.106413096
8	0x3e937919	0.28803328
9	0x3e81215d	0.25220767
10	0xbcb02e70	-0.021506518
11	0xbe0fee10	-0.14055657
12	0xbea1a377	-0.31570026
13	0xbe6fead0	-0.23429418
14	0x3e3b194a	0.18271366
15	0xbe008eeb	-0.12554519
16	0xbc999400	-0.01874733
17	0xbea5267e	-0.3225593
18	0xbd16d228	-0.036821514
19	0x3e34abe2	0.17643693
20	0xbd9de99c	-0.07710573
21	0x3d5b2598	0.05350265
22	0xbe9da658	-0.30790973
23	0xbde066fc	-0.10957143
24	0xbdf7e260	-0.121037245
25	0x3e384bca	0.17997661
26	0xbc089e60	-0.008338541
27	0x3c5e9ce0	0.013587207
28	0x3e838f19	0.25695112
29	0xbe382e96	-0.17986521
30	0x3e8b4d7d	0.27207556
31	0x3e88d815	0.26727358
32	0x3d7f1748	0.062278062
33	0x3e1cff2e	0.15331718
34	0xbd7934c8	-0.06084135
35	0xbddc48dc	-0.10756084
36	0xbe104073	-0.14087085
37	0xbe47d7b3	-0.19515876
38	0x3dca6e4c	0.09884319
39	0xbe0895c3	-0.1333838
40	0x3e159788	0.14608586
41	0xbea750f7	-0.3267896
42	0xbe135d9b	-0.14391176
43	0x3e0fc37a	0.14039412
44	0xbd5b4a18	-0.05353746
45	0xbd4435f8	-0.04790303
46	0x3e5abfea	0.21362272
47	0x3e89bcbd	0.26901808
48	0x3c90ecc0	0.017691016
49	0x3ea48b1f	0.3213739
50	0xbe91d298	-0.28480983
51	0xbd482b20	-0.048869252
52	0x3ea03d73	0.31296882
53	0xbe5b87d0	-0.21438527
54	0x3d8640dc	0.0655534
55	0xbe97de46	-0.2966177
56	0xbdfc0c3c	-0.12307021
57	0xbe9420cf	-0.2893128
58	0xbdeeee8c	-0.11666593
59	0x3e00bda6	0.12572345
60	0xbe654238	-0.22388542
61	0xbe8a447c	-0.27005374
62	0x3e0ac536	0.13551793
63	0xbdb65410	-0.089027524
64	0x3d3c8cd8	0.046032757
65	0xbdd4e170	-0.10394561
66	0xbe871676	-0.26384324
67	0x3ce6c4f0	0.028170079
68	0xbde7971c	-0.11308119
69	0xbd668520	-0.0562793
70	0x3e9857bd	0.2975444
71	0xbe4fe590	-0.20302415

fc1.bias f4 [8]
0	0xbe84ee62	-0.25963122
1	0x3e8a9885	0.27069488
2	0x3e575172	0.21027163
3	0xbe757c50	-0.23973203
4	0x3e2ce942	0.16885856
5	0xbcbdb6f0	-0.02315852
6	0xbe95b4a0	-0.29239368
7	0xbe9303ce	-0.2871384

fc2.weight f4 [8, 8]
0	0x3e6fea0a	0.23429123
1	0xbdabcacc	-0.0838829
2	0x3e870819	0.26373366
3	0x3ea9a001	0.33129886
4	0xbb765c80	-0.0037591755
5	0x3e8a1c2f	0.26974627
6	0x3d430bb0	0.047618568
7	0x3e173486	0.1476613
8	0x3c9cbcf0	0.019133061
9	0xbe80c53e	-0.25150484
10	0x3e6aa506	0.22914514
11	0x3e9af753	0.30266818
12	0xbd018b68	-0.03162709
13	0xbe9e33e9	-0.3089898
14	0xbbfa1800	-0.0076322556
15	0xbe8984e7	-0.2685921
16	0x3e709c82	0.23497203
17	0xbe09912a	-0.13434282
18	0x3df47a34	0.11937371
19	0x3bb47000	0.0055065155
20	0x3da24a08	0.079242766
21	0x3e02e498	0.12782514
22	0x3eaea885	0.34112945
23	0xbe431ce5	-0.19053991
24	0x3e2f6616	0.17128786
25	0xbe3b2e5f	-0.18279408
26	0x3b9e7b40	0.00483647
27	0xbbd24100	-0.00641644
28	0x3ea9bdd5	0.33152643
29	0xbeb03aff	-0.3442001
30	0x3e59f1be	0.21283624
31	0x3dbc6290	0.09198487
32	0x3e8f6973	0.2801014
33	0x3e40867a	0.18801299
34	0xbe761bd5	-0.24034055
35	0x3ae01f00	0.0017099082
36	0x3e704986	0.23465547
37	0xbdb3481c	-0.08753988
38	0x3e92ffa5	0.28710666
39	0xbe0b6ad4	-0.1361497
40	0x3dc06158	0.09393567
41	0xbe621031	-0.22076489
42	0xbea51668	-0.32243657
43	0xbe890fdf	-0.2676992
44	0x3e690826	0.22757015
45	0xbeb4857e	-0.35258096
46	0xbdb74588	-0.08948809
47	0xbe5562e5	-0.20838507
48	0xbd785898	-0.060631365
49	0xbe905ab4	-0.281942
50	0x3e24f6ce	0.16109774
51	0xbc6ddd00	-0.014518023
52	0x3c4dc6e0	0.0125596225
53	0xbd65b7f0	-0.05608362
54	0x3e5e15ca	0.21688
55	0xbe3e9647	-0.18612014
56	0x3e87e3ad	0.2654089
57	0xbe505db4	-0.20348245
58	0x3d3aad18	0.04557523
59	0x3cdbc340	0.0268265
60	0x3e9170dd	0.2840642
61	0xbe1ccb53	-0.15311937
62	0x3cec10d0	0.02881661
63	0x3e0168a6	0.12637576

fc2.bias f4 [8]
0	0xbe98f8e5	-0.2987739
1	0x3d8dae68	0.06918031
2	0x3e0858f8	0.13315189
3	0xbeaa2816	-0.33233708
4	0x3e400d02	0.18754962
5	0x3e18f4f6	0.14937195
6	0xbe124381	-0.14283563
7	0xbeb4ddaf	-0.3532538

fc3.weight f4 [8, 8]
0	0x3e16cc1a	0.14726296
1	0x3e771eda	0.24132863
2	0xbe9103c3	-0.28323182
3	0xbe904345	-0.28176323
4	0x3e973cbf	0.29538533
5	0x3e95902b	0.29211554
6	0xbddd88d0	-0.108171105
7	0x3e9847eb	0.2974237
8	0x3df4c780	0.11952114
9	0x3d72c1d8	0.059266895
10	0x3de9c260	0.11414027
11	0xbddbb1d6	-0.10727279
12	0x3e16345e	0.14668414
13	0x3e969213	0.2940832
14	0x3dcc2f9c	0.09970018
15	0xbe7f324a	-0.24921528
16	0x3e9e271f	0.30889222
17	0x3e825bc5	0.2546064
18	0x3e82aac7	0.25520918
19	0xbe2c7e71	-0.16845109
20	0xbde9814e	-0.11401616
21	0xbe47d8e6	-0.19516334
22	0x3dfdf184	0.12399581
23	0x3e0f45c8	0.13991463
24	0x3e766932	0.24063566
25	0x3dfed2e4	0.12442568
26	0x3ce26640	0.027636647
27	0x3d745878	0.059654683
28	0xbe6c7fdd	-0.23095651
29	0xbc5d6f60	-0.013515323
30	0x3ea4e011	0.322022
31	0xbe991939	-0.29902056
32	0xbd09c028	-0.03363052
33	0x3ea5577b	0.32293305
34	0x3e809a2b	0.2511762
35	0xbe246b01	-0.16056444
36	0xbe83926f	-0.25697657
37	0xbe347916	-0.17624316
38	0xba486600	-0.0007644594
39	0x3e065fa4	0.13122422
40	0xbe4e4f2a	-0.20147386
41	0x3e939d23	0.28830823
42	0x3e2bef12	0.16790417
43	0xbe60ae6e	-0.2194154
44	0x3df4bf14	0.11950508
45	0xbe833ad4	-0.2563082
46	0x3d861758	0.06547421
47	0x3e98fee5	0.2988197
48	0x3e3114b2	0.17293051
49	0x3df2ce94	0.11855808
50	0xbe1df0da	-0.15423909
51	0xbe4c7515	-0.19966538
52	0x3e2717b6	0.16317639
53	0x3eb39a47	0.35078642
54	0xbdeddafa	-0.11614032
55	0xbe5574ab	-0.20845287
56	0x3db1fa44	0.086903125
57	0xbe281b64	-0.16416699
58	0x3e8b6b9d	0.2723054
59	0x3e8d25b3	0.27567825
60	0xbd2d06c0	-0.042242765
61	0xbe7b3c28	-0.24534667
62	0x3e88a939	0.26691607
63	0x3e4e84d2	0.20167854

fc3.bias f4 [8]
0	0xbeb3a02b	-0.35083136
1	0xbeb01aa8	-0.34395337
2	0x3e0b09a0	0.1357789
3	0xbeb360c6	-0.3503477
4	0x3e365822	0.17807057
5	0xbe9ff725	-0.31243244
6	0xbdd614a4	-0.10453156
7	0xbe831418	-0.25601268

fc4.weight f4 [8, 8]
0	0xbd8e9530	-0.06962049
1	0xbe5b48cc	-0.21414489
2	0x3e3f3f1a	0.18676415
3	0xbe5a7409	-0.21333326
4	0xbdca1378	-0.098669946
5	0xbeb0070f	-0.34380385
6	0x3df32470	0.11872184
7	0x3d654df0	0.05598253
8	0xbe00912b	-0.12555377
9	0xbeb1e44d	-0.34744492
10	0xbd0bc918	-0.034127325
11	0x3e73b606	0.23799905
12	0xbe4cb51c	-0.19990963
13	0x3cf45a00	0.029828072
14	0xbe6600b4	-0.22461206
15	0x3e8e2051	0.2775903
16	0x3e7558ee	0.23959705
17	0xbda2de20	-0.07952523
18	0xbdda33d8	-0.1065442
19	0x3e41d5fe	0.18929288
20	0x3d0b1090	0.033951342
21	0xbe50b382	-0.20380977
22	0xbd85541c	-0.06510183
23	0x3da1dfec	0.07904038
24	0x3dfe6c40	0.12422991
25	0xbe38185e	-0.17978045
26	0xbe3636c9	-0.17794336
27	0xbe2d22e6	-0.16907844
28	0x3ea8713f	0.328989
29	0x3dac7250	0.08420241
30	0xbe3cddb8	-0.18443954
31	0x3e6dc98e	0.23221418
32	0x3d0485c8	0.032354146
33	0x3e33d8ba	0.17563143
34	0xbb8306c0	-0.0039986074
35	0x3d9fe828	0.07807952
36	0xbe53aea1	-0.20672084
37	0x3e6f4392	0.2336562
38	0x3eb0541f	0.3443918
39	0xbeb0978c	-0.3449062
40	0xbd80a1ec	-0.06280884
41	0xbe9bd65b	-0.30436978
42	0x3da18d44	0.078882724
43	0xbb98fac0	-0.0046685636
44	0x3e4c2cae	0.19938919
45	0x3d5b10d0	0.05348283
46	0xbe984bff	-0.2974548
47	0xbdb97d94	-0.09057155
48	0xbe8e9c4a	-0.27853614
49	0x3e872d43	0.2640172
50	0x3e6a194e	0.22861215
51	0x3dc22d14	0.09481254
52	0x3e752b8e	0.23942396
53	0x3e6a17aa	0.2286059
54	0xbe040cfc	-0.12895578
55	0xbe955432	-0.29165798
56	0x3d745a58	0.05965647
57	0x3e6e4386	0.23267946
58	0xbd95d868	-0.07316667
59	0x3ea995bf	0.3312206
60	0x3dfd3210	0.12363064
61	0xbe98c02c	-0.29834116
62	0x3e8455eb	0.258468
63	0xbdc81928	-0.09770423

fc4.bias f4 [8]
0	0xbe04b18e	-0.12958357
1	0x3dd12b04	0.10213283
2	0x3d142220	0.036165357
3	0xbe204f79	-0.15655316
4	0x3d2f3788	0.042777568
5	0xbe2e047d	-0.169939
6	0xbd09c618	-0.033636183
7	0x3e460e36	0.19341359

fc5.weight f4 [4, 8]
0	0xbcf8cd70	-0.030371398
1	0x3ea011ed	0.31263676
2	0x3c1458e0	0.009054393
3	0xbddd6c32	-0.10811652
4	0x3e293432	0.16523817
5	0x3cd173d0	0.025567919
6	0x3d432630	0.04764384
7	0x3e6275ba	0.22115222
8	0xbcdd7eb0	-0.027037948
9	0xbea90c77	-0.33017322
10	0xbe4183ca	-0.1889793
11	0x3dd7ff88	0.105467856
12	0x3e81e9c9	0.25373676
13	0xbd7aa408	-0.06119159
14	0x3d3848a8	0.044991165
15	0x3d51a288	0.051180393
16	0x3bf24940	0.007393986
17	0xbeb06bb2	-0.34457165
18	0xbe8670d2	-0.2625795
19	0xbdca8b68	-0.09889871
20	0x3d541d48	0.051785737
21	0x3ea67c47	0.3251669
22	0xbe93530f	-0.28774306
23	0x3e8c729b	0.27431187
24	0x3d0b7a58	0.034052223
25	0xbe904b1a	-0.28182298
26	0x3e8e5067	0.27795717
27	0xbe6217c8	-0.22079384
28	0xbe5e752a	-0.21724382
29	0x3e9c735d	0.30556765
30	0xbe945b61	-0.28975967
31	0x3dc5cb8c	0.09657964

fc5.bias f4 [4]
0	0x3e2603ea	0.1621243
1	0xbe953a93	-0.2914625
2	0x3e7d9162	0.2476249
3	0x3e33fe66	0.17577514
